…
            conv_type='norm1',
            norm_type='mean')
Using cuda backend
=================================================================================================================================================
Layer (type:depth-idx)                        Kernel Shape              Input Shape               Output Shape              Param #
=================================================================================================================================================
ResNet                                        --                        [128, 3, 32, 32]          [128, 10]                 --
├─Conv2d: 1-1                                 [3, 3]                    [128, 3, 32, 32]          [128, 16, 32, 32]         432
├─BatchNorm2d: 1-2                            --                        [128, 16, 32, 32]         [128, 16, 32, 32]         32
├─Sequential: 1-3                             --                        [128, 16, 32, 32]         [128, 16, 32, 32]         --
│    └─InfinityBlock: 2-1                     --                        [128, 16, 32, 32]         [128, 16, 32, 32]         --
│    │    └─Conv1x1: 3-1                      --                        [128, 16, 32, 32]         [128, 16, 32, 32]         256
│    │    └─BatchNorm2d: 3-2                  --                        [128, 16, 32, 32]         [128, 16, 32, 32]         16
│    │    └─InfinityConv: 3-3                 3                         [128, 16, 32, 32]         [128, 16, 32, 32]         144
│    │    └─BatchNorm2d: 3-4                  --                        [128, 16, 32, 32]         [128, 16, 32, 32]         16
│    │    └─Identity: 3-5                     --                        [128, 16, 32, 32]         [128, 16, 32, 32]         --
├─Sequential: 1-4                             --                        [128, 16, 32, 32]         [128, 32, 16, 16]         --
│    └─InfinityBlock: 2-2                     --                        [128, 16, 32, 32]         [128, 32, 16, 16]         --
│    │    └─Conv1x1: 3-6                      --                        [128, 16, 32, 32]         [128, 32, 32, 32]         512
│    │    └─BatchNorm2d: 3-7                  --                        [128, 32, 32, 32]         [128, 32, 32, 32]         32
│    │    └─InfinityConv: 3-8                 3                         [128, 32, 32, 32]         [128, 32, 16, 16]         288
│    │    └─BatchNorm2d: 3-9                  --                        [128, 32, 16, 16]         [128, 32, 16, 16]         32
│    │    └─Conv1x1: 3-10                     --                        [128, 16, 32, 32]         [128, 32, 16, 16]         512
├─Sequential: 1-5                             --                        [128, 32, 16, 16]         [128, 64, 8, 8]           --
│    └─InfinityBlock: 2-3                     --                        [128, 32, 16, 16]         [128, 64, 8, 8]           --
│    │    └─Conv1x1: 3-11                     --                        [128, 32, 16, 16]         [128, 64, 16, 16]         2,048
│    │    └─BatchNorm2d: 3-12                 --                        [128, 64, 16, 16]         [128, 64, 16, 16]         64
│    │    └─InfinityConv: 3-13                3                         [128, 64, 16, 16]         [128, 64, 8, 8]           576
│    │    └─BatchNorm2d: 3-14                 --                        [128, 64, 8, 8]           [128, 64, 8, 8]           64
│    │    └─Conv1x1: 3-15                     --                        [128, 32, 16, 16]         [128, 64, 8, 8]           2,048
├─Linear: 1-6                                 --                        [128, 64]                 [128, 10]                 650
=================================================================================================================================================
Total params: 7,722
Trainable params: 7,722
Non-trainable params: 0
Total mult-adds (M): 258.07
=================================================================================================================================================
Input size (MB): 1.57
…
