…
            expansion=8,
            morpho_init='normal',
            relu=False)
Using cuda backend
=================================================================================================================================================
Layer (type:depth-idx)                        Kernel Shape              Input Shape               Output Shape              Param #
=================================================================================================================================================
MobileNetV2                                   --                        [128, 3, 32, 32]          [128, 10]                 --
├─Sequential: 1-1                             --                        [128, 3, 32, 32]          [128, 64, 8, 8]           --
│    └─InvertedResidual: 2-1                  --                        [128, 3, 32, 32]          [128, 16, 32, 32]         --
│    │    └─Conv2dNormActivation: 3-1         --                        [128, 3, 32, 32]          [128, 16, 32, 32]         80
│    │    └─InfinityConv: 3-2                 3                         [128, 16, 32, 32]         [128, 16, 32, 32]         144
│    │    └─BatchNorm2d: 3-3                  --                        [128, 16, 32, 32]         [128, 16, 32, 32]         32
│    │    └─Identity: 3-4                     --                        [128, 16, 32, 32]         [128, 16, 32, 32]         --
│    │    └─Conv2d: 3-5                       [1, 1]                    [128, 16, 32, 32]         [128, 16, 32, 32]         256
│    │    └─BatchNorm2d: 3-6                  --                        [128, 16, 32, 32]         [128, 16, 32, 32]         32
│    └─InvertedResidual: 2-2                  --                        [128, 16, 32, 32]         [128, 16, 32, 32]         --
│    │    └─Conv2dNormActivation: 3-7         --                        [128, 16, 32, 32]         [128, 128, 32, 32]        2,304
│    │    └─InfinityConv: 3-8                 3                         [128, 128, 32, 32]        [128, 128, 32, 32]        1,152
│    │    └─BatchNorm2d: 3-9                  --                        [128, 128, 32, 32]        [128, 128, 32, 32]        256
│    │    └─Identity: 3-10                    --                        [128, 128, 32, 32]        [128, 128, 32, 32]        --
│    │    └─Conv2d: 3-11                      [1, 1]                    [128, 128, 32, 32]        [128, 16, 32, 32]         2,048
│    │    └─BatchNorm2d: 3-12                 --                        [128, 16, 32, 32]         [128, 16, 32, 32]         32
│    └─InvertedResidual: 2-3                  --                        [128, 16, 32, 32]         [128, 16, 32, 32]         --
│    │    └─Conv2dNormActivation: 3-13        --                        [128, 16, 32, 32]         [128, 128, 32, 32]        2,304
│    │    └─InfinityConv: 3-14                3                         [128, 128, 32, 32]        [128, 128, 32, 32]        1,152
│    │    └─BatchNorm2d: 3-15                 --                        [128, 128, 32, 32]        [128, 128, 32, 32]        256
│    │    └─Identity: 3-16                    --                        [128, 128, 32, 32]        [128, 128, 32, 32]        --
│    │    └─Conv2d: 3-17                      [1, 1]                    [128, 128, 32, 32]        [128, 16, 32, 32]         2,048
│    │    └─BatchNorm2d: 3-18                 --                        [128, 16, 32, 32]         [128, 16, 32, 32]         32
│    └─InvertedResidual: 2-4                  --                        [128, 16, 32, 32]         [128, 16, 32, 32]         --
│    │    └─Conv2dNormActivation: 3-19        --                        [128, 16, 32, 32]         [128, 128, 32, 32]        2,304
│    │    └─InfinityConv: 3-20                3                         [128, 128, 32, 32]        [128, 128, 32, 32]        1,152
│    │    └─BatchNorm2d: 3-21                 --                        [128, 128, 32, 32]        [128, 128, 32, 32]        256
│    │    └─Identity: 3-22                    --                        [128, 128, 32, 32]        [128, 128, 32, 32]        --
│    │    └─Conv2d: 3-23                      [1, 1]                    [128, 128, 32, 32]        [128, 16, 32, 32]         2,048
│    │    └─BatchNorm2d: 3-24                 --                        [128, 16, 32, 32]         [128, 16, 32, 32]         32
│    └─InvertedResidual: 2-5                  --                        [128, 16, 32, 32]         [128, 32, 16, 16]         --
│    │    └─Conv2dNormActivation: 3-25        --                        [128, 16, 32, 32]         [128, 128, 32, 32]        2,304
│    │    └─InfinityConv: 3-26                3                         [128, 128, 32, 32]        [128, 128, 16, 16]        1,152
│    │    └─BatchNorm2d: 3-27                 --                        [128, 128, 16, 16]        [128, 128, 16, 16]        256
│    │    └─Identity: 3-28                    --                        [128, 128, 16, 16]        [128, 128, 16, 16]        --
│    │    └─Conv2d: 3-29                      [1, 1]                    [128, 128, 16, 16]        [128, 32, 16, 16]         4,096
│    │    └─BatchNorm2d: 3-30                 --                        [128, 32, 16, 16]         [128, 32, 16, 16]         64
│    └─InvertedResidual: 2-6                  --                        [128, 32, 16, 16]         [128, 32, 16, 16]         --
│    │    └─Conv2dNormActivation: 3-31        --                        [128, 32, 16, 16]         [128, 256, 16, 16]        8,704
│    │    └─InfinityConv: 3-32                3                         [128, 256, 16, 16]        [128, 256, 16, 16]        2,304
│    │    └─BatchNorm2d: 3-33                 --                        [128, 256, 16, 16]        [128, 256, 16, 16]        512
│    │    └─Identity: 3-34                    --                        [128, 256, 16, 16]        [128, 256, 16, 16]        --
│    │    └─Conv2d: 3-35                      [1, 1]                    [128, 256, 16, 16]        [128, 32, 16, 16]         8,192
│    │    └─BatchNorm2d: 3-36                 --                        [128, 32, 16, 16]         [128, 32, 16, 16]         64
│    └─InvertedResidual: 2-7                  --                        [128, 32, 16, 16]         [128, 32, 16, 16]         --
│    │    └─Conv2dNormActivation: 3-37        --                        [128, 32, 16, 16]         [128, 256, 16, 16]        8,704
│    │    └─InfinityConv: 3-38                3                         [128, 256, 16, 16]        [128, 256, 16, 16]        2,304
│    │    └─BatchNorm2d: 3-39                 --                        [128, 256, 16, 16]        [128, 256, 16, 16]        512
│    │    └─Identity: 3-40                    --                        [128, 256, 16, 16]        [128, 256, 16, 16]        --
│    │    └─Conv2d: 3-41                      [1, 1]                    [128, 256, 16, 16]        [128, 32, 16, 16]         8,192
│    │    └─BatchNorm2d: 3-42                 --                        [128, 32, 16, 16]         [128, 32, 16, 16]         64
│    └─InvertedResidual: 2-8                  --                        [128, 32, 16, 16]         [128, 64, 8, 8]           --
│    │    └─Conv2dNormActivation: 3-43        --                        [128, 32, 16, 16]         [128, 256, 16, 16]        8,704
│    │    └─InfinityConv: 3-44                3                         [128, 256, 16, 16]        [128, 256, 8, 8]          2,304
│    │    └─BatchNorm2d: 3-45                 --                        [128, 256, 8, 8]          [128, 256, 8, 8]          512
│    │    └─Identity: 3-46                    --                        [128, 256, 8, 8]          [128, 256, 8, 8]          --
│    │    └─Conv2d: 3-47                      [1, 1]                    [128, 256, 8, 8]          [128, 64, 8, 8]           16,384
│    │    └─BatchNorm2d: 3-48                 --                        [128, 64, 8, 8]           [128, 64, 8, 8]           128
│    └─InvertedResidual: 2-9                  --                        [128, 64, 8, 8]           [128, 64, 8, 8]           --
│    │    └─Conv2dNormActivation: 3-49        --                        [128, 64, 8, 8]           [128, 512, 8, 8]          33,792
│    │    └─InfinityConv: 3-50                3                         [128, 512, 8, 8]          [128, 512, 8, 8]          4,608
│    │    └─BatchNorm2d: 3-51                 --                        [128, 512, 8, 8]          [128, 512, 8, 8]          1,024
│    │    └─Identity: 3-52                    --                        [128, 512, 8, 8]          [128, 512, 8, 8]          --
│    │    └─Conv2d: 3-53                      [1, 1]                    [128, 512, 8, 8]          [128, 64, 8, 8]           32,768
│    │    └─BatchNorm2d: 3-54                 --                        [128, 64, 8, 8]           [128, 64, 8, 8]           128
│    └─InvertedResidual: 2-10                 --                        [128, 64, 8, 8]           [128, 64, 8, 8]           --
│    │    └─Conv2dNormActivation: 3-55        --                        [128, 64, 8, 8]           [128, 512, 8, 8]          33,792
│    │    └─InfinityConv: 3-56                3                         [128, 512, 8, 8]          [128, 512, 8, 8]          4,608
│    │    └─BatchNorm2d: 3-57                 --                        [128, 512, 8, 8]          [128, 512, 8, 8]          1,024
│    │    └─Identity: 3-58                    --                        [128, 512, 8, 8]          [128, 512, 8, 8]          --
│    │    └─Conv2d: 3-59                      [1, 1]                    [128, 512, 8, 8]          [128, 64, 8, 8]           32,768
│    │    └─BatchNorm2d: 3-60                 --                        [128, 64, 8, 8]           [128, 64, 8, 8]           128
├─Sequential: 1-2                             --                        [128, 64]                 [128, 10]                 --
│    └─Dropout: 2-11                          --                        [128, 64]                 [128, 64]                 --
│    └─Linear: 2-12                           --                        [128, 64]                 [128, 10]                 650
=================================================================================================================================================
Total params: 238,666
Trainable params: 238,666
Non-trainable params: 0
Total mult-adds (G): 4.60
=================================================================================================================================================
Input size (MB): 1.57
…
