…
            relu=False,
            conv_type='norm1',
            norm_type='globalnorm')
Using cuda backend
============================================================================================================================================
Layer (type:depth-idx)                   Kernel Shape              Input Shape               Output Shape              Param #
============================================================================================================================================
MobileNetV2                              --                        [128, 3, 32, 32]          [128, 10]                 --
├─Sequential: 1-1                        --                        [128, 3, 32, 32]          [128, 64, 8, 8]           --
│    └─InvertedResidual: 2-1             --                        [128, 3, 32, 32]          [128, 16, 32, 32]         --
│    │    └─Conv1x1: 3-1                 --                        [128, 3, 32, 32]          [128, 16, 32, 32]         48
│    │    └─BatchNorm2d: 3-2             --                        [128, 16, 32, 32]         [128, 16, 32, 32]         32
│    │    └─Identity: 3-3                --                        [128, 16, 32, 32]         [128, 16, 32, 32]         --
│    │    └─InfinityConv: 3-4            3                         [128, 16, 32, 32]         [128, 16, 32, 32]         144
│    │    └─BatchNorm2d: 3-5             --                        [128, 16, 32, 32]         [128, 16, 32, 32]         32
│    │    └─Identity: 3-6                --                        [128, 16, 32, 32]         [128, 16, 32, 32]         --
│    │    └─Conv1x1: 3-7                 --                        [128, 16, 32, 32]         [128, 16, 32, 32]         256
│    │    └─BatchNorm2d: 3-8             --                        [128, 16, 32, 32]         [128, 16, 32, 32]         32
│    └─InvertedResidual: 2-2             --                        [128, 16, 32, 32]         [128, 16, 32, 32]         --
│    │    └─Conv1x1: 3-9                 --                        [128, 16, 32, 32]         [128, 128, 32, 32]        2,048
│    │    └─BatchNorm2d: 3-10            --                        [128, 128, 32, 32]        [128, 128, 32, 32]        256
│    │    └─Identity: 3-11               --                        [128, 128, 32, 32]        [128, 128, 32, 32]        --
│    │    └─InfinityConv: 3-12           3                         [128, 128, 32, 32]        [128, 128, 32, 32]        1,152
│    │    └─BatchNorm2d: 3-13            --                        [128, 128, 32, 32]        [128, 128, 32, 32]        256
│    │    └─Identity: 3-14               --                        [128, 128, 32, 32]        [128, 128, 32, 32]        --
│    │    └─Conv1x1: 3-15                --                        [128, 128, 32, 32]        [128, 16, 32, 32]         2,048
│    │    └─BatchNorm2d: 3-16            --                        [128, 16, 32, 32]         [128, 16, 32, 32]         32
│    └─InvertedResidual: 2-3             --                        [128, 16, 32, 32]         [128, 16, 32, 32]         --
│    │    └─Conv1x1: 3-17                --                        [128, 16, 32, 32]         [128, 128, 32, 32]        2,048
│    │    └─BatchNorm2d: 3-18            --                        [128, 128, 32, 32]        [128, 128, 32, 32]        256
│    │    └─Identity: 3-19               --                        [128, 128, 32, 32]        [128, 128, 32, 32]        --
│    │    └─InfinityConv: 3-20           3                         [128, 128, 32, 32]        [128, 128, 32, 32]        1,152
│    │    └─BatchNorm2d: 3-21            --                        [128, 128, 32, 32]        [128, 128, 32, 32]        256
│    │    └─Identity: 3-22               --                        [128, 128, 32, 32]        [128, 128, 32, 32]        --
│    │    └─Conv1x1: 3-23                --                        [128, 128, 32, 32]        [128, 16, 32, 32]         2,048
│    │    └─BatchNorm2d: 3-24            --                        [128, 16, 32, 32]         [128, 16, 32, 32]         32
│    └─InvertedResidual: 2-4             --                        [128, 16, 32, 32]         [128, 16, 32, 32]         --
│    │    └─Conv1x1: 3-25                --                        [128, 16, 32, 32]         [128, 128, 32, 32]        2,048
│    │    └─BatchNorm2d: 3-26            --                        [128, 128, 32, 32]        [128, 128, 32, 32]        256
│    │    └─Identity: 3-27               --                        [128, 128, 32, 32]        [128, 128, 32, 32]        --
│    │    └─InfinityConv: 3-28           3                         [128, 128, 32, 32]        [128, 128, 32, 32]        1,152
│    │    └─BatchNorm2d: 3-29            --                        [128, 128, 32, 32]        [128, 128, 32, 32]        256
│    │    └─Identity: 3-30               --                        [128, 128, 32, 32]        [128, 128, 32, 32]        --
│    │    └─Conv1x1: 3-31                --                        [128, 128, 32, 32]        [128, 16, 32, 32]         2,048
│    │    └─BatchNorm2d: 3-32            --                        [128, 16, 32, 32]         [128, 16, 32, 32]         32
│    └─InvertedResidual: 2-5             --                        [128, 16, 32, 32]         [128, 32, 16, 16]         --
│    │    └─Conv1x1: 3-33                --                        [128, 16, 32, 32]         [128, 128, 32, 32]        2,048
│    │    └─BatchNorm2d: 3-34            --                        [128, 128, 32, 32]        [128, 128, 32, 32]        256
│    │    └─Identity: 3-35               --                        [128, 128, 32, 32]        [128, 128, 32, 32]        --
│    │    └─InfinityConv: 3-36           3                         [128, 128, 32, 32]        [128, 128, 16, 16]        1,152
│    │    └─BatchNorm2d: 3-37            --                        [128, 128, 16, 16]        [128, 128, 16, 16]        256
│    │    └─Identity: 3-38               --                        [128, 128, 16, 16]        [128, 128, 16, 16]        --
│    │    └─Conv1x1: 3-39                --                        [128, 128, 16, 16]        [128, 32, 16, 16]         4,096
│    │    └─BatchNorm2d: 3-40            --                        [128, 32, 16, 16]         [128, 32, 16, 16]         64
│    └─InvertedResidual: 2-6             --                        [128, 32, 16, 16]         [128, 32, 16, 16]         --
│    │    └─Conv1x1: 3-41                --                        [128, 32, 16, 16]         [128, 256, 16, 16]        8,192
│    │    └─BatchNorm2d: 3-42            --                        [128, 256, 16, 16]        [128, 256, 16, 16]        512
│    │    └─Identity: 3-43               --                        [128, 256, 16, 16]        [128, 256, 16, 16]        --
│    │    └─InfinityConv: 3-44           3                         [128, 256, 16, 16]        [128, 256, 16, 16]        2,304
│    │    └─BatchNorm2d: 3-45            --                        [128, 256, 16, 16]        [128, 256, 16, 16]        512
│    │    └─Identity: 3-46               --                        [128, 256, 16, 16]        [128, 256, 16, 16]        --
│    │    └─Conv1x1: 3-47                --                        [128, 256, 16, 16]        [128, 32, 16, 16]         8,192
│    │    └─BatchNorm2d: 3-48            --                        [128, 32, 16, 16]         [128, 32, 16, 16]         64
│    └─InvertedResidual: 2-7             --                        [128, 32, 16, 16]         [128, 32, 16, 16]         --
│    │    └─Conv1x1: 3-49                --                        [128, 32, 16, 16]         [128, 256, 16, 16]        8,192
│    │    └─BatchNorm2d: 3-50            --                        [128, 256, 16, 16]        [128, 256, 16, 16]        512
│    │    └─Identity: 3-51               --                        [128, 256, 16, 16]        [128, 256, 16, 16]        --
│    │    └─InfinityConv: 3-52           3                         [128, 256, 16, 16]        [128, 256, 16, 16]        2,304
│    │    └─BatchNorm2d: 3-53            --                        [128, 256, 16, 16]        [128, 256, 16, 16]        512
│    │    └─Identity: 3-54               --                        [128, 256, 16, 16]        [128, 256, 16, 16]        --
│    │    └─Conv1x1: 3-55                --                        [128, 256, 16, 16]        [128, 32, 16, 16]         8,192
│    │    └─BatchNorm2d: 3-56            --                        [128, 32, 16, 16]         [128, 32, 16, 16]         64
│    └─InvertedResidual: 2-8             --                        [128, 32, 16, 16]         [128, 64, 8, 8]           --
│    │    └─Conv1x1: 3-57                --                        [128, 32, 16, 16]         [128, 256, 16, 16]        8,192
│    │    └─BatchNorm2d: 3-58            --                        [128, 256, 16, 16]        [128, 256, 16, 16]        512
│    │    └─Identity: 3-59               --                        [128, 256, 16, 16]        [128, 256, 16, 16]        --
│    │    └─InfinityConv: 3-60           3                         [128, 256, 16, 16]        [128, 256, 8, 8]          2,304
│    │    └─BatchNorm2d: 3-61            --                        [128, 256, 8, 8]          [128, 256, 8, 8]          512
│    │    └─Identity: 3-62               --                        [128, 256, 8, 8]          [128, 256, 8, 8]          --
│    │    └─Conv1x1: 3-63                --                        [128, 256, 8, 8]          [128, 64, 8, 8]           16,384
│    │    └─BatchNorm2d: 3-64            --                        [128, 64, 8, 8]           [128, 64, 8, 8]           128
│    └─InvertedResidual: 2-9             --                        [128, 64, 8, 8]           [128, 64, 8, 8]           --
│    │    └─Conv1x1: 3-65                --                        [128, 64, 8, 8]           [128, 512, 8, 8]          32,768
│    │    └─BatchNorm2d: 3-66            --                        [128, 512, 8, 8]          [128, 512, 8, 8]          1,024
│    │    └─Identity: 3-67               --                        [128, 512, 8, 8]          [128, 512, 8, 8]          --
│    │    └─InfinityConv: 3-68           3                         [128, 512, 8, 8]          [128, 512, 8, 8]          4,608
│    │    └─BatchNorm2d: 3-69            --                        [128, 512, 8, 8]          [128, 512, 8, 8]          1,024
│    │    └─Identity: 3-70               --                        [128, 512, 8, 8]          [128, 512, 8, 8]          --
│    │    └─Conv1x1: 3-71                --                        [128, 512, 8, 8]          [128, 64, 8, 8]           32,768
│    │    └─BatchNorm2d: 3-72            --                        [128, 64, 8, 8]           [128, 64, 8, 8]           128
│    └─InvertedResidual: 2-10            --                        [128, 64, 8, 8]           [128, 64, 8, 8]           --
│    │    └─Conv1x1: 3-73                --                        [128, 64, 8, 8]           [128, 512, 8, 8]          32,768
│    │    └─BatchNorm2d: 3-74            --                        [128, 512, 8, 8]          [128, 512, 8, 8]          1,024
│    │    └─Identity: 3-75               --                        [128, 512, 8, 8]          [128, 512, 8, 8]          --
│    │    └─InfinityConv: 3-76           3                         [128, 512, 8, 8]          [128, 512, 8, 8]          4,608
│    │    └─BatchNorm2d: 3-77            --                        [128, 512, 8, 8]          [128, 512, 8, 8]          1,024
│    │    └─Identity: 3-78               --                        [128, 512, 8, 8]          [128, 512, 8, 8]          --
│    │    └─Conv1x1: 3-79                --                        [128, 512, 8, 8]          [128, 64, 8, 8]           32,768
│    │    └─BatchNorm2d: 3-80            --                        [128, 64, 8, 8]           [128, 64, 8, 8]           128
├─Sequential: 1-2                        --                        [128, 64]                 [128, 10]                 --
│    └─Dropout: 2-11                     --                        [128, 64]                 [128, 64]                 --
│    └─Linear: 2-12                      --                        [128, 64]                 [128, 10]                 650
============================================================================================================================================
Total params: 238,666
Trainable params: 238,666
Non-trainable params: 0
Total mult-adds (G): 4.60
============================================================================================================================================
Input size (MB): 1.57
…
